Neural Network/RNN/initialization_model.pt (torch, 70559 bytes, 11 tensors)

weight f4 [63, 32]
0	0x3b0cbda5	0.0021475342
1	0xbf63234c	-0.88725734
2	0xbf6a1b66	-0.91448057
3	0x4021b5ed	2.5267289
4	0x3e38498d	0.17996807
5	0xbd078782	-0.033088215
6	0xbf461f94	-0.77391934
7	0xc01b40b1	-2.4258235
8	0x3c9c921a	0.019112635
9	0xbc518e7d	-0.0127903195
10	0x3ff89656	1.9420879
11	0x3f604386	0.8760303
12	0xbfa01954	-1.250773
13	0xbf8ce424	-1.1007123
14	0xc02216a4	-2.5326319
15	0xbfe8f983	-1.8201145
16	0xbef8a98c	-0.48566854
17	0x3f3bcb9d	0.73357564
18	0x3cb5cd43	0.022192603
19	0x4010404f	2.253925
20	0x3f94208f	1.1572436
21	0xbf943202	-1.1577761
22	0xbf291a52	-0.66055787
23	0xbf8dc9a4	-1.1077161
24	0xbe16f28c	-0.14740962
25	0x4018a1ba	2.384871
26	0x3f71ca69	0.9444948
27	0x3fb1df01	1.389618
28	0xbfc30875	-1.5236956
29	0x3f1dfaea	0.6171099
30	0xbf452b88	-0.7701955
31	0x3f8a09f1	1.0784284
32	0xbf7b04a4	-0.98053956
33	0xbfaa2d73	-1.329512
34	0xbf46dc05	-0.77679473
35	0x40084a9d	2.129554
36	0xbfbafa06	-1.4607551
37	0x4028274a	2.627398
38	0xbd1fb45f	-0.038990375
39	0xbeb6b807	-0.35687277
40	0x3f71e599	0.94490963
41	0xbfb27e49	-1.3944789
42	0xbfb493e7	-1.4107636
43	0xc00b4907	-2.1763322
44	0x3f882c5b	1.0638536
45	0xbdddc4f8	-0.108285844
46	0xc0249211	-2.5714152
47	0xc03eccc6	-2.9812484
48	0xbfa8f3db	-1.3199419
49	0x3fcde26e	1.6084726
50	0xbfa65dcd	-1.2997376
51	0xbf1704b8	-0.58991575
52	0x3fa29a2e	1.2703302
53	0xc00f41fb	-2.2384021
54	0x4013f710	2.3119545
55	0xbf2cd57f	-0.6751327
56	0x4050e35d	3.2638772
57	0x4090eda3	4.5290084
58	0xbf7fe4dc	-0.99958587
59	0x3fd3dc17	1.6551541
60	0x400f0c24	2.235116
61	0x3ff460df	1.9092063
62	0xbf2be24f	-0.67142195
63	0xbfc3325b	-1.5249742
64	0xc000394e	-2.0034976
65	0xc03d576f	-2.9584615
66	0xbfda175b	-1.7038378
67	0x3fb95fdd	1.448238
68	0x3f86a304	1.0518498
69	0xbf8fd359	-1.1236373
70	0xbebc6b00	-0.36800385
71	0xbd8570c5	-0.0651565
72	0xbe10b05c	-0.14129776
73	0xbf762346	-0.96147573
74	0xbd29d87c	-0.04146622
75	0xbf96671a	-1.1750214
76	0xbf69fd2a	-0.9140192
77	0xc00b4545	-2.1761029
78	0x3f6a5876	0.9154123
79	0xc0463774	-3.0971346
80	0x3fc9e1ee	1.5772073
81	0x3fa5872f	1.293188
82	0xc040f680	-3.0150452
83	0x3ef9a439	0.48758104
84	0x3fd601cc	1.6719298
85	0xbf6e2ffb	-0.9304196
86	0xc045154b	-3.0794246
87	0x40244614	2.5667772
88	0xc06259b8	-3.536726
89	0x3fafca9c	1.3733706
90	0xbfb31263	-1.3989986
91	0xbda42b81	-0.0801611
92	0x3eca82cf	0.39552924
93	0x3fc1081a	1.5080597
94	0xbf65beb0	-0.8974409
95	0x4002c888	2.0434895
96	0x3d407048	0.04698208
97	0xc02d9c34	-2.712659
98	0x3fa572b8	1.2925634
99	0x4008521e	2.130012
100	0x3f70f917	0.9413008
101	0x401248d8	2.285696
102	0xbf817800	-1.0114746
103	0x3e26b1a1	0.16278698
104	0x3ffdecd4	1.9837899
105	0x3fb79660	1.4342766
106	0x3ea64b57	0.32479355
107	0x3f69de97	0.9135527
108	0xbfc7174d	-1.5553986
109	0xbeeb5e6e	-0.45970482
110	0x3f054323	0.5205557
111	0xbff7452f	-1.9317988
112	0x3f907688	1.1286173
113	0x3f3f3968	0.7469697
114	0xbf699236	-0.91238725
115	0xbf8fac5a	-1.1224473
116	0x3fd11d70	1.6337109
117	0xbf90da52	-1.1316626
118	0xbb510970	-0.0031896494
119	0xbf719fc1	-0.9438439
120	0xbf601ce2	-0.8754407
121	0xbff535d5	-1.9157053
122	0xbf34536f	-0.7043981
123	0x4020302e	2.5029407
124	0x3f72f5c6	0.9490627
125	0xbf2f4816	-0.6846937
126	0x40066504	2.0999155
127	0xbf5547d5	-0.8331273
128	0xbf5b9996	-0.8578123
129	0x3fa40736	1.2814701
130	0xc025f6c4	-2.5931864
131	0xbfbde080	-1.4834137
132	0x3fc00227	1.5000657
133	0xbfe5839d	-1.793079
134	0xc01a1170	-2.4073143
135	0xc013342a	-2.3000588
136	0x3ff51640	1.9147415
137	0xbf7d2724	-0.9888785
138	0x4068ea2e	3.6392932
139	0x3f0e49b9	0.5558124
140	0x3ef4df21	0.47826484
141	0x3fcabcfd	1.5838925
142	0xbf7ebc8d	-0.99506456
143	0xbfae935d	-1.3638722
144	0x3f31b790	0.6942072
145	0xbf6afbd8	-0.91790533
146	0x3fe25ebf	1.7685164
147	0x3f3f8cd9	0.7482429
148	0x3efe6a2d	0.4969038
149	0xbf276537	-0.65388817
150	0xc00e9095	-2.2275746
151	0xbf349c2b	-0.70550793
152	0x3e380b4c	0.1797306
153	0x400fbf15	2.2460377
154	0x3f81c5aa	1.0138447
155	0x3f304ee1	0.6887036
156	0xbf681623	-0.9065878
157	0xc00f6640	-2.2406158
158	0xc00a41bf	-2.1602628
159	0x4000ae42	2.0106359
160	0xbe2252e5	-0.15851934
161	0x3f889298	1.0669737
162	0x3fb98732	1.4494383
163	0xbfd16cf9	-1.6361381
164	0x3f7fb244	0.99881387
165	0xbe9647e2	-0.29351717
166	0xbede02d1	-0.43361524
167	0x400340fd	2.0508416
168	0x3dc917d4	0.09818998
169	0xbfe139a1	-1.7595712
170	0x3e982373	0.29714546
171	0x3ea365f9	0.31913736
172	0xc06e1d9b	-3.720557
173	0xc01d7f82	-2.4609075
174	0x3fa91933	1.3210815
175	0x3c9e6985	0.019337425
176	0xbed9fc1d	-0.4257516
177	0x3dec65bf	0.11542844
178	0x401c883c	2.445815
179	0x3f228d8f	0.6349725
180	0x3ec34df2	0.38145405
181	0x3e0d4a9a	0.1379799
182	0xbe4dec86	-0.20109758
183	0x4010ae74	2.2606478
184	0xbf1ef44a	-0.62091506
185	0xbf90ef4f	-1.1323031
186	0xbf8b6d0f	-1.0892657
187	0xbfdfc18e	-1.7480943
188	0xbf9cb313	-1.2242149
189	0xc057a229	-3.3692725
190	0xbf866814	-1.0500512
191	0x3f920d20	1.1410255
192	0x3fe96df5	1.8236681
193	0x40216490	2.5217628
194	0xbfd4ff91	-1.6640493
195	0x3ec5e99c	0.38654792
196	0x3fb4079c	1.4064822
197	0xbf4fe85a	-0.81213915
198	0xc0038b54	-2.055379
199	0xbffb2c77	-1.9622945
200	0x40060e77	2.0946329
201	0xc0688d98	-3.6336422
202	0xc075e0fe	-3.8418574
203	0xc0095e1e	-2.1463695
204	0xc0104d96	-2.2547355
205	0x3f7e3701	0.9930268
206	0xc04c6e56	-3.1942344
207	0x401d1c9a	2.4548707
208	0x3f7985e3	0.9746992
209	0xbe77c178	-0.24194896
210	0x3f93ede6	1.1556976
211	0x3df3434e	0.11878072
212	0xbf901377	-1.125594
213	0x4049558f	3.145847
214	0x3fa78909	1.3088695
215	0x401a2e72	2.4090848
216	0xbfa3db7f	-1.280136
217	0x3ec2fe0e	0.38084453
218	0x3f5a2a4a	0.8522078
219	0x3f969773	1.1764969
220	0x3dd2be46	0.10290198
221	0xbf9db723	-1.2321514
222	0xbfded921	-1.7410012
223	0xbf1498f3	-0.5804588
224	0xbf7d0026	-0.9882835
225	0xbff0aa28	-1.8801928
226	0x3f91e4fd	1.1398007
227	0x3f993133	1.196814
228	0xbf4e9840	-0.80701065
229	0x4042230f	3.0333898
230	0xbf66c7e6	-0.9014877
231	0xbf0e7499	-0.55646664
232	0x4019ffef	2.406246
233	0x3f5eafa6	0.8698677
234	0x3fba43d5	1.4551951
235	0xbf7eedda	-0.9958168
236	0xc00020e0	-2.0020065
237	0x3facd32a	1.3501942
238	0xbfb4297e	-1.4075162
239	0x3f42d776	0.7611002
240	0x3f9aed58	1.2103682
241	0x3fafd687	1.3737344
242	0x3f002b00	0.5006561
243	0x3fef9884	1.8718419
244	0x3fd6151e	1.6725194
245	0xbfa4a484	-1.2862706
246	0x3f37cf86	0.7180103
247	0xbf781605	-0.969086
248	0x3f59bf15	0.85057193
249	0x40026543	2.0374305
250	0x3f30cb1c	0.6905992
251	0x4022cfca	2.5439324
252	0x3fabf43d	1.3433911
253	0x403f0a77	2.9850137
254	0xbe2ab046	-0.16668805
255	0xbf6b915c	-0.92018676

weight_ih_l0 f4 [96, 32]
0	0x3fb2bbae	1.3963525
1	0x3f960839	1.1721259
2	0xbf544f9f	-0.8293399
3	0xbece2b2d	-0.40267316
4	0xbfa405f5	-1.2814318
5	0x3d16017c	0.03662251
6	0x3f85de9e	1.0458562
7	0xbeda241e	-0.4260568
8	0xbfb30a18	-1.3987455
9	0x3faddfd8	1.3583937
10	0x3f3a24cf	0.72712415
11	0xbf6b37c6	-0.9188198
12	0x3f887e21	1.0663491
13	0xbfade569	-1.3585635
14	0x3f93cc1a	1.1546662
15	0x3fbe2395	1.4854609
16	0x3fb68233	1.4258484
17	0xbfd0333b	-1.6265634
18	0xbfbfba7a	-1.4978783
19	0x3f9df850	1.2341404
20	0xbfad5278	-1.3540792
21	0x3f745c99	0.9545379
22	0xbfa097de	-1.2546346
23	0x3de8a0d5	0.11358801
24	0xbf65a6b1	-0.89707476
25	0xbfb4c60b	-1.4122938
26	0xbfa62ff5	-1.2983385
27	0x3f66680b	0.90002507
28	0xbed2343f	-0.41055486
29	0x3f8243dd	1.017696
30	0x3f9c7e86	1.2226112
31	0x3f8155ba	1.0104287
32	0xbfa9e38e	-1.3272569
33	0x3fc097c7	1.5046319
34	0xbfa408a3	-1.2815136
35	0xbfa2e307	-1.2725533
36	0xbfbaabbb	-1.4583658
37	0x3f655db2	0.8959609
38	0xbfc65e25	-1.5497481
39	0xbf72bb7a	-0.94817317
40	0xbf443a32	-0.766513
41	0xbfaf7e65	-1.3710448
42	0x3f0aad93	0.54171103
43	0x3fa06dbc	1.2533488
44	0x3f1fdb08	0.6244359
45	0xbf81dc43	-1.0145344
46	0xbf8dc6ba	-1.1076272
47	0x3fa4b150	1.2866611
48	0x3f0d7c4a	0.55267775
49	0xbf63a821	-0.8892842
50	0x3faa4a38	1.33039
51	0x3fb6ade7	1.4271821
52	0xbf99a962	-1.2004817
53	0x3e9dd0a5	0.30823246
54	0xbfa06391	-1.2530385
55	0x3fae6015	1.3623072
56	0x3f7ca88e	0.98694694
57	0x3f8610ce	1.0473878
58	0x3f83d64b	1.0299772
59	0xbf80b771	-1.0055982
60	0x3f07c4ff	0.5303497
61	0xbf67c2bf	-0.90531534
62	0x3f768b96	0.9630674
63	0x3fb8b5be	1.4430463
64	0x3fae350b	1.3609937
65	0x3f8bbfca	1.0917904
66	0xbf41690c	-0.75550914
67	0x3f3902d4	0.7226994
68	0xbf3e9037	-0.74438804
69	0xbfacf8e9	-1.3513461
70	0x3fa57e7a	1.2929223
71	0xbf708b18	-0.9396224
72	0xbf9b13ee	-1.2115457
73	0xbfb33eb2	-1.4003508
74	0x3f83f502	1.0309145
75	0xbfa6c436	-1.3028629
76	0x3f9f3108	1.2436838
77	0xbfa29f18	-1.2704802
78	0x3f9e43f5	1.2364489
79	0x3fc37004	1.526856
80	0xbf1f11f6	-0.6213678
81	0xbfd331c4	-1.6499562
82	0x3f08d6a5	0.5345252
83	0x3f8bf338	1.09336
84	0xbe39b092	-0.18133762
85	0x3f91680a	1.1359875
86	0x3f554086	0.8330158
87	0x3f9d1287	1.2271279
88	0xbec180a2	-0.37793452
89	0xbfaf06df	-1.3673972
90	0x3f75dc2a	0.9603907
91	0x3faa9062	1.3325312
92	0xbf998a80	-1.1995392
93	0x3f2829c2	0.6568872
94	0x3fc1048d	1.5079514
95	0x3f9839b2	1.1892607
96	0xbfa53c4e	-1.2909029
97	0xbf8bf4f0	-1.0934124
98	0x3f3420e4	0.7036269
99	0xbee79c0a	-0.45236236
100	0x3f82e6fd	1.0226742
101	0x3fb71813	1.4304222
102	0x3f6a7973	0.91591567
103	0x3f483c92	0.7821742
104	0xbf852760	-1.0402641
105	0x3fc1b9e4	1.5134854
106	0x3f9cc29e	1.2246892
107	0x3faa885b	1.3322862
108	0x3ecdc222	0.40187174
109	0xbf5d558d	-0.86458665
110	0x3fa10275	1.2578875
111	0xbf8520c7	-1.0400628
112	0x3efa0c57	0.4883754
113	0x3f4c9fa7	0.7993111
114	0x3f8cd4c1	1.1002427
115	0x3d49091e	0.04908096
116	0xbf4352f0	-0.7629843
117	0xbfa07636	-1.2536075
118	0xbf93ba38	-1.1541204
119	0x3ede5694	0.4342543
120	0x3fc97135	1.5737673
121	0x3fa63135	1.2983767
122	0x3f6cd0b2	0.92505944
123	0xbfc8f152	-1.5698645
124	0xbf25f5fa	-0.64828455
125	0x3fbeea34	1.4915223
126	0x3f0dec63	0.5543882
127	0x3eef246b	0.46707472
128	0xbfa90143	-1.320351
129	0xbf09757d	-0.536949
130	0x3f086091	0.5327235
131	0xbfb19d15	-1.3876063
132	0xbf4c00f2	-0.7968894
133	0xbf960d22	-1.1722758
134	0xbfdcec23	-1.7259563
135	0x3fac283b	1.3449777
136	0x3f4cfcdb	0.80073327
137	0x3fb032c3	1.3765491
138	0x3f97b02f	1.1850642
139	0x3fad6069	1.3545047
140	0x3fbe9d91	1.4891835
141	0x3d58958b	0.05287699
142	0x3f92e36a	1.1475651
143	0xbfa0646c	-1.2530646
144	0x3f8566be	1.042198
145	0x3f5fb99a	0.8739258
146	0xbf524680	-0.82138824
147	0x3fb3141c	1.3990512
148	0xbf8986bc	-1.0744243
149	0x3fa4e74b	1.2883085
150	0xbfa7bead	-1.3105065
151	0x3fc70c3e	1.5550611
152	0xbfaf4e08	-1.3695688
153	0x3f8978e3	1.0740017
154	0xbf32e8f5	-0.69886714
155	0x3f9a2985	1.2043921
156	0xbfc48ec6	-1.5356071
157	0xbf86d8db	-1.0534929
158	0x3f829e29	1.0204517
159	0x3f857f86	1.0429542
160	0x3f3541a5	0.7080329
161	0x3f871b6a	1.0555241
162	0xbf5b07bf	-0.85558695
163	0xbfa9ead4	-1.3274789
164	0x3f2f9958	0.6859336
165	0xbee3020d	-0.44337502
166	0xbef152dc	-0.4713353
167	0x3c9b4b7c	0.018956892
168	0xbfcbaeec	-1.5912757
169	0x3ce92512	0.02846006
170	0x3fcae824	1.5852094
171	0x3faa69e4	1.3313565
172	0x3f5bf5ec	0.8592212
173	0x3fb0d56b	1.381513
174	0x3fbbc836	1.4670475
175	0x3f01cb9a	0.50701296
176	0xbfb49380	-1.4107513
177	0x3efd5324	0.49477494
178	0xbfb4a664	-1.4113278
179	0x3f728d19	0.9474655
180	0xbeb6cfc3	-0.35705385
181	0x3f24bb4b	0.64348286
182	0x3ed272cb	0.41103205
183	0xbfbc0938	-1.4690313
184	0x3f5569cf	0.83364576
185	0xbe479c60	-0.19493246
186	0x3eafdf1d	0.3434991
187	0x3d77258d	0.060338546
188	0xbb9915ad	-0.0046717734
189	0x3f62194d	0.88319856
190	0x3fa57f49	1.2929469
191	0xbfd5b1ae	-1.6694849
192	0x3fb28b7c	1.3948817
193	0x3f6dc220	0.92874336
194	0xbebaeab6	-0.36507195
195	0x3f7ed3e3	0.99542063
196	0xbf343f30	-0.70408916
197	0x3f8f9238	1.1216497
198	0xbf97af14	-1.1850305
199	0x3fbe4ad1	1.4866582
200	0xbfbafa66	-1.4607666
201	0x3f873b8a	1.0565045
202	0x3e45bcb8	0.19310272
203	0x3f9e8365	1.2383848
204	0x3fac0c0c	1.3441176
205	0xbf3bf7ea	-0.7342516
206	0x3f85b16f	1.0444773
207	0xbfc39913	-1.528109
208	0xbd822a3d	-0.063557126
209	0x3f57d64b	0.8431136
210	0xbf9c9c8d	-1.2235276
211	0x3f994701	1.1974794
212	0xbfc37ee5	-1.52731
213	0x3f85ad26	1.0443466
214	0x3f4ac489	0.7920614
215	0xbf801606	-1.0006721
216	0xbf29e508	-0.663651
217	0x3f156846	0.58362234
218	0xbfa1ad5d	-1.2631031
219	0x3f330f4e	0.6994523
220	0xbf4b84ad	-0.7949932
221	0x3f596219	0.8491531
222	0x3fa13217	1.2593411
223	0xbf83d59f	-1.0299567
224	0xbef09172	-0.46985966
225	0xbfa99309	-1.3247997
226	0xbf65ad18	-0.89717245
227	0x3f85455b	1.0411791
228	0xbf6f5e09	-0.9350286
229	0x3f73c230	0.9521818
230	0x3f9845a3	1.1896251
231	0xbfd315b4	-1.6490998
232	0x3f1771ff	0.5915832
233	0xbfb4077d	-1.4064785
234	0x3f824b06	1.0179145
235	0xbfb78443	-1.4337238
236	0x3f8f8902	1.1213686
237	0xbf9b8dbe	-1.2152631
238	0x3f93c64d	1.1544892
239	0x3f8dde6b	1.1083502
240	0x3fab4417	1.3380154
241	0x3ee109ae	0.43952698
242	0xbf8a354c	-1.0797515
243	0x3f8bf56d	1.0934273
244	0x3fc35553	1.5260414
245	0x3e1a0554	0.15041095
246	0xbeb4ba90	-0.35298586
247	0x3fb8db96	1.4442012
248	0xbed10841	-0.4082661
249	0xbfc861cb	-1.5654844
250	0xbf6b9e2e	-0.9203824
251	0x3f988d87	1.1918191
252	0x3f222411	0.6333628
253	0x3f8f8b01	1.1214296
254	0xbe5e6473	-0.21718006
255	0x3fc2fa20	1.5232582

weight_hh_l0 f4 [96, 32]
0	0x3fa19cf2	1.2626021
1	0x3f409f45	0.75243026
2	0x3f683cf8	0.9071803
3	0x3fc1c98a	1.513963
4	0xbfafa970	-1.3723583
5	0x3f7476de	0.95493877
6	0xbfc8ab3f	-1.567726
7	0x3fa8cc53	1.3187355
8	0x3fba0212	1.4531882
9	0xbfd53bc0	-1.6658859
10	0xbfd1c95c	-1.6389575
11	0xbf9bf2a4	-1.2183423
12	0xbe8df6a4	-0.27727234
13	0x3ef18549	0.47172
14	0x3f5f20c4	0.8715937
15	0xbfc7202a	-1.5556691
16	0xbfaddd53	-1.3583168
17	0xbfb044f1	-1.3771039
18	0x3f89b7b4	1.0759187
19	0xbf9dc22a	-1.2324879
20	0x3de83cd3	0.11339726
21	0x3f8e2dcf	1.110773
22	0x3fa18922	1.2619975
23	0x3fa22521	1.2667581
24	0xbf3694ec	-0.71320987
25	0xbf79da1a	-0.9759842
26	0x3e353107	0.17694484
27	0xbe446350	-0.1917851
28	0xbefcbfe2	-0.49365145
29	0x3fbed92d	1.4910027
30	0x3e0264f3	0.12733822
31	0x3f9d6327	1.2295884
32	0x3fc373ac	1.5269675
33	0xbf90700a	-1.1284192
34	0x3ea60f7d	0.32433692
35	0x3fa99eb4	1.3251557
36	0xbf204984	-0.62612176
37	0x3fbcf8db	1.4763445
38	0xbfbfa81d	-1.4973179
39	0x3fab708f	1.3393725
40	0x3f8d0403	1.1016849
41	0xbf56b34b	-0.8386733
42	0xbfa9f600	-1.3278198
43	0xbfc2d3ff	-1.5220946
44	0x3f02c9c5	0.51089126
45	0xbf52ea92	-0.82389176
46	0x3fae31a9	1.3608905
47	0x3f57908b	0.8420493
48	0xbfb9e5f3	-1.45233
49	0xbf951647	-1.1647424
50	0xbf8fa629	-1.1222583
51	0x3ed6075e	0.41802496
52	0xbf99c94b	-1.2014555
53	0x3f9bb592	1.2164786
54	0xbf484e0c	-0.7824409
55	0xbfb8cf72	-1.4438307
56	0xbdb83073	-0.08993616
57	0x3fb21d09	1.3915111
58	0xbf88b5c0	-1.0680466
59	0x3f93f95d	1.1560475
60	0x3cadcd6b	0.021216115
61	0xbfcadf77	-1.5849446
62	0x3fba7065	1.456555
63	0xbe29e098	-0.16589582
64	0x3fbca538	1.4737921
65	0x3f8d511b	1.1040376
66	0x3f9e0a6d	1.2346932
67	0x3f4359c4	0.76308846
68	0xbfa89cfb	-1.3172907
69	0x3f8024f9	1.0011283
70	0xbf9830d7	-1.1889905
71	0x3fa3ba36	1.2791202
72	0xbf14c5ce	-0.58114326
73	0xbf5c1dae	-0.8598279
74	0xbfa6852a	-1.3009388
75	0x3f9436d1	1.1579229
76	0xbf8db020	-1.1069374
77	0xbf9959fe	-1.1980588
78	0x3f035b83	0.5131151
79	0xbfb95033	-1.44776
80	0xbfd413b3	-1.6568512
81	0x3f8b7e2a	1.0897877
82	0x3fad86d4	1.3556771
83	0xbf7115c8	-0.9417386
84	0x3f3e4177	0.7431864
85	0xbee6265a	-0.44951135
86	0x3eeec3f7	0.46633884
87	0x3f8f400e	1.1191423
88	0x3f9120ec	1.1338172
89	0xbf1033c9	-0.5632902
90	0xbf982777	-1.1887044
91	0xbf8c96ef	-1.0983561
92	0xbf7804b9	-0.96882206
93	0x3c3b72cf	0.011440947
94	0x3f69c37e	0.9131392
95	0xbeb025c0	-0.344038
96	0x3f9cabbd	1.223991
97	0xbfa061fb	-1.2529901
98	0xbf935fc8	-1.1513605
99	0x3d7c23d9	0.061557624
100	0xbf580cec	-0.8439472
101	0xbf896fc2	-1.0737231
102	0x3fc007fc	1.5002437
103	0x3fb0aafa	1.3802178
104	0x3f93e8b3	1.1555389
105	0xbfb20bc1	-1.3909837
106	0xbfb9802c	-1.449224
107	0x3f8c44c4	1.0958486
108	0xbf59bc9b	-0.85053414
109	0xbf577952	-0.84169495
110	0x3f1630a9	0.58668
111	0x3e8fb9fa	0.28071576
112	0xbf43a9cd	-0.7643097
113	0xbf6ab39f	-0.9168033
114	0xbf5290a0	-0.8225193
115	0xbfc01214	-1.5005517
116	0xbfbf1837	-1.4929265
117	0x3facbc75	1.3495013
118	0x3fb5518a	1.4165509
119	0x3f92526a	1.1431401
120	0xbf9c7f20	-1.2226295
121	0xbf96c1b2	-1.1777861
122	0xbf8e307f	-1.110855
123	0xbf6624f8	-0.8990016
124	0xbf92c533	-1.146643
125	0x3f93f583	1.1559299
126	0x3f7e6d8f	0.99385923
127	0x3f2507a2	0.6446477
128	0xbf503262	-0.8132688
129	0x3e95377a	0.29143888
130	0x3e2bc367	0.16773759
131	0x3f076590	0.5288935
132	0xbf07d934	-0.530658
133	0xbfb80928	-1.4377794
134	0x3f356ab8	0.70865965
135	0x3f7b35ab	0.98128766
136	0x3f9d4868	1.2287722
137	0xbfa4b3e0	-1.2867393
138	0xbfb9dd7a	-1.4520714
139	0x3edc0b6d	0.42977467
140	0xbe169f14	-0.14709121
141	0xbf904373	-1.1270584
142	0x3fbc7b15	1.4725062
143	0xbf191135	-0.5979188
144	0xbf8c451c	-1.095859
145	0xbfbf7a60	-1.4959221
146	0xbdcb49ac	-0.09926161
147	0xbf8ab6ff	-1.0837096
148	0xbf9123fe	-1.1339109
149	0x3fb7fa6d	1.4373299
150	0x3fbd0c25	1.4769331
151	0xbebce5f6	-0.36894196
152	0xbfa617f4	-1.297606
153	0xbf67fbef	-0.90618795
154	0xbf0a5bce	-0.5404633
155	0x3f7a0b09	0.9767309
156	0xbf819344	-1.0123067
157	0x3f607801	0.8768311
158	0x3f1909d0	0.597806
159	0x3f90b582	1.1305392
160	0xbf73ce77	-0.95236915
161	0x3fa10408	1.2579355
162	0x3f5496ac	0.8304241
163	0x3dbf6da5	0.09347085
164	0xbeeed80e	-0.46649212
165	0xbdc23021	-0.09481836
166	0x3dea3a4c	0.114369005
167	0x3fb74aa7	1.4319657
168	0x3fa9bcbe	1.3260725
169	0xbfc92443	-1.5714191
170	0xbfb8b681	-1.4430696
171	0x3ee3bea7	0.44481394
172	0xbfbb3415	-1.4625269
173	0xbf328ac1	-0.6974297
174	0x3fb29015	1.395022
175	0xbfa22435	-1.26673
176	0xbf9c4a27	-1.221013
177	0xbf8c4668	-1.0958986
178	0x3f31807a	0.69336665
179	0xbfdba3c2	-1.715935
180	0xbfaca0ae	-1.3486536
181	0x3fc3a5d8	1.5284986
182	0x3f88fbee	1.0701883
183	0x3f88e18a	1.0693829
184	0xbfad35c7	-1.3532037
185	0xbf22b697	-0.6355986
186	0x3f195e90	0.59909916
187	0xbfa44dc2	-1.283623
188	0xbf832f35	-1.0248781
189	0x3f1e0b3a	0.6173588
190	0xbe88d031	-0.26721337
191	0x3fc9ad9a	1.5756104
192	0x3fc4bad5	1.5369517
193	0x3fa83c65	1.3143431
194	0x3efefb0e	0.49800915
195	0x3e88a9ac	0.2669195
196	0x3f7b6782	0.98204815
197	0x3f712d05	0.9420932
198	0x3fc2a792	1.5207388
199	0x3fc6f623	1.5543865
200	0x3fa6aed1	1.30221
201	0x3d30923d	0.043108214
202	0xbfaa7b5d	-1.3318897
203	0xbd204111	-0.039124552
204	0xbfd7db57	-1.6863812
205	0xbf8c1548	-1.0943995
206	0x3f9aefd0	1.2104435
207	0xbfa4e5ce	-1.2882631
208	0xbf95c600	-1.170105
209	0x3f7fa3ee	0.9985951
210	0x3e5f6c4a	0.21818653
211	0xbfb3b4f7	-1.4039601
212	0xbfbce687	-1.4757851
213	0x3fa9266b	1.3214849
214	0x3f78c687	0.9717793
215	0x3fdc06c9	1.7189571
216	0xbfbd1818	-1.4772978
217	0x3f9c3ab0	1.220541
218	0xbf81a6c6	-1.012902
219	0x3ddb06e8	0.10694677
220	0xbfa42020	-1.2822304
221	0x3fc78a6e	1.558912
222	0x3fd2466b	1.642774
223	0x3fc16a8d	1.5110642
224	0xbf83c5b8	-1.0294714
225	0xbfb41368	-1.4068422
226	0xbfa4cb57	-1.2874554
227	0xbfb76bfa	-1.4329827
228	0x3fa6f4bc	1.3043437
229	0xbfa3c8a0	-1.2795601
230	0x3fd80119	1.6875335
231	0x3f8b31f3	1.0874618
232	0xbfb8f0e9	-1.444852
233	0x3dbcb138	0.09213489
234	0x3fa8191e	1.3132665
235	0xbf9c7bd9	-1.2225295
236	0x3f5404c2	0.8281976
237	0x3f61610b	0.880387
238	0xbc55f7ac	-0.013059538
239	0xbf7c9e84	-0.98679376
240	0x3f1f15b7	0.6214251
241	0x3f2502f9	0.6445766
242	0x3f92b326	1.1460922
243	0xbfa8e059	-1.3193465
244	0x3f9a50ea	1.2055943
245	0x3ed2efd0	0.41198587
246	0x3f84b168	1.036664
247	0x3f837d6e	1.0272653
248	0x3fab9689	1.3405315
249	0x3f8d4b53	1.1038612
250	0xbfc743c0	-1.5567551
251	0xbfae1b51	-1.3602086
252	0xbf09b087	-0.53784984
253	0x3fb112d8	1.3833876
254	0xbfa05365	-1.252545
255	0x3fa160db	1.2607683

bias_ih_l0 f4 [96]
0	0xbf97cd32	-1.1859496
1	0xbf7d0e85	-0.9885028
2	0xbfa4f104	-1.2886052
3	0xbfa9b0cc	-1.3257079
4	0xbf74d08e	-0.9563073
5	0xbf9c625e	-1.2217519
6	0xbf97021b	-1.1797518
7	0xbee27cb0	-0.44235754
8	0xbf8af222	-1.0855143
9	0xbfa7e638	-1.3117132
10	0xbfa8745f	-1.3160514
11	0xbfdb505a	-1.7133896
12	0xbf94d33e	-1.1626966
13	0xbfb7d830	-1.436285
14	0xbfc15d2d	-1.510656
15	0xbfab9dcd	-1.3407532
16	0xbf99bbd2	-1.2010443
17	0xbfb15fc3	-1.3857349
18	0x3f8ec86d	1.1154915
19	0xbf6d13ed	-0.9260853
20	0xbf92a6ad	-1.1457115
21	0xbe8cafd9	-0.2747791
22	0xbf8b5587	-1.0885476
23	0xbf6388d0	-0.88880634
24	0xbfa85360	-1.3150444
25	0xbf46abf3	-0.77606124
26	0xbf8823c1	-1.0635911
27	0xbfaced73	-1.3509964
28	0xbfab272c	-1.3371329
29	0x3fa58526	1.2931259
30	0xbfb984a5	-1.4493605
31	0xbf7496ac	-0.9554241
32	0xbfc39728	-1.5280504
33	0xbfc346ff	-1.5256041
34	0xbfa24c24	-1.2679486
35	0xbfb9cd01	-1.4515687
36	0xbfb752a9	-1.4322101
37	0xbfa0b940	-1.2556534
38	0xbfbbf92e	-1.4685419
39	0xbf98be47	-1.1933068
40	0xbf965e23	-1.1747478
41	0xbfa1ab1a	-1.2630341
42	0xbfa61abe	-1.2976911
43	0xbfb7f45d	-1.4371449
44	0xbfa34a11	-1.2756978
45	0xbfa63701	-1.2985536
46	0xbfb1614b	-1.3857816
47	0xbfc144e9	-1.5099155
48	0xbfbd3547	-1.4781884
49	0xbfaa4c00	-1.3304443
50	0xbfc37b1b	-1.5271944
51	0xbfc2c21a	-1.5215485
52	0xbf9612f0	-1.1724529
53	0xbfab6eab	-1.3393148
54	0xbf9c217f	-1.2197722
55	0xbfb19cfe	-1.3876035
56	0xbfb29a2a	-1.3953297
57	0xbfa28af5	-1.2698656
58	0xbfc27656	-1.5192363
59	0xbfb72a6c	-1.4309821
60	0xbfbce7b0	-1.4758205
61	0xbf98d64b	-1.1940397
62	0xbfc215d7	-1.5162915
63	0xbfaa5562	-1.3307307
64	0xbf5ea8f9	-0.8697658
65	0x3fa7008b	1.3047041
66	0xbe414c3c	-0.18876737
67	0xbe810414	-0.25198424
68	0x3f1f3477	0.6218943
69	0xbf856f12	-1.0424521
70	0x3e349ba0	0.17637491
71	0xbfb9db61	-1.4520074
72	0x3ea18080	0.3154335
73	0x3fcdf1fe	1.6089475
74	0x3f9418cf	1.1570071
75	0xbf4f6b93	-0.8102352
76	0x3fa3a79b	1.2785524
77	0x3f75ab94	0.9596493
78	0xbf7cd60f	-0.9876413
79	0xbf4e270e	-0.8052834
80	0x3fb64509	1.4239818
81	0x3f2d097a	0.67592585
82	0xbf62bdf4	-0.88571095
83	0x3fa11750	1.258524
84	0x3f9779b8	1.1834021
85	0xbfb23284	-1.3921666
86	0xbf8fe374	-1.1241288
87	0xbf97112a	-1.1802113
88	0x3f72f51a	0.94905245
89	0xbf9d24b8	-1.2276831
90	0x3f89cf10	1.0766315
91	0x3f7ba6b1	0.98301226
92	0x3f86b9bb	1.052543
93	0x3f9274ca	1.1441891
94	0x3ef96876	0.4871251
95	0xbf9049c5	-1.1272513

bias_hh_l0 f4 [96]
0	0xbfa10542	-1.257973
1	0xbf8f939c	-1.1216922
2	0xbf99a96c	-1.2004828
3	0xbfb473b5	-1.4097811
4	0xbf80e25c	-1.0069079
5	0xbfb11338	-1.383399
6	0xbf93afe1	-1.1538049
7	0xbf01d9dc	-0.5072305
8	0xbf82f845	-1.0232016
9	0xbfa46159	-1.2842208
10	0xbfba0622	-1.4533122
11	0xbfb3b9d1	-1.4041082
12	0xbf94afee	-1.161619
13	0xbfcb7a58	-1.5896711
14	0xbfba6302	-1.4561465
15	0xbf8f6ff7	-1.1206044
16	0xbf807a12	-1.0037253
17	0xbfb72751	-1.4308873
18	0x3f927ebd	1.1444927
19	0xbf7e39bb	-0.9930684
20	0xbfa91048	-1.3208094
21	0xbf1705b7	-0.58993095
22	0xbfa24e29	-1.2680103
23	0xbf8dbc7e	-1.1073148
24	0xbf8a6187	-1.0811013
25	0xbf1db481	-0.6160355
26	0xbfa2617c	-1.2686
27	0xbfc32f51	-1.5248815
28	0xbfb78c3a	-1.4339669
29	0x3fc0185b	1.5007433
30	0xbfc1a216	-1.512759
31	0xbf53dec0	-0.82761765
32	0xbfd306ef	-1.6486491
33	0xbfba0089	-1.4531413
34	0xbfba5e4c	-1.4560027
35	0xbfa37bd3	-1.2772163
36	0xbfbb5891	-1.4636403
37	0xbfbfb2af	-1.4976405
38	0xbfbe641d	-1.4874302
39	0xbfa4650d	-1.2843338
40	0xbfb1d7a0	-1.3893929
41	0xbfb7c0e4	-1.435574
42	0xbfc5a0e8	-1.543973
43	0xbfa05f1e	-1.2529027
44	0xbfb01126	-1.3755233
45	0xbfad39ee	-1.3533304
46	0xbfb9c5fc	-1.4513545
47	0xbf9dbc3b	-1.2323068
48	0xbfb3edd6	-1.4056957
49	0xbfb264af	-1.3936976
50	0xbf9db342	-1.232033
51	0xbfb2ab86	-1.3958595
52	0xbfbfd2aa	-1.4986165
53	0xbfaba006	-1.340821
54	0xbfbabe95	-1.4589411
55	0xbfac6c13	-1.3470482
56	0xbf9eb846	-1.2399986
57	0xbfa51f39	-1.2900153
58	0xbfac7156	-1.3472087
59	0xbfb653b4	-1.4244294
60	0xbfbf634d	-1.4952179
61	0xbfbca77c	-1.4738612
62	0xbfc4c112	-1.537142
63	0xbfaaad7c	-1.3334193
64	0xbf8a19b2	-1.0789092
65	0x3fab7dfc	1.3397822
66	0xbf7f075e	-0.99620616
67	0x3f54b279	0.8308483
68	0x3f5667c6	0.83752096
69	0xbf4c103a	-0.7971226
70	0x3f3669c6	0.7125515
71	0xbfae42e9	-1.3614169
72	0x3d9d3158	0.07675427
73	0x3fb09905	1.3796698
74	0x3fa5c157	1.2949628
75	0xbf81bc3c	-1.013557
76	0x3fa7b856	1.310313
77	0x3e8adb6e	0.27120537
78	0xbf8622f3	-1.0479416
79	0xbf885ff6	-1.0654285
80	0x3f99b6b9	1.2008888
81	0xbf88d292	-1.0689261
82	0xbf9189e1	-1.1370202
83	0x3f9c0204	1.2188115
84	0x3fad25da	1.3527176
85	0xbfabcbc6	-1.3421562
86	0xbf8283d5	-1.0196482
87	0xbf8b42e9	-1.0879794
88	0x3f601cf6	0.8754419
89	0xbfa2892f	-1.2698115
90	0x3e751a0e	0.2393572
91	0x3fa8ef89	1.31981
92	0x3f84f197	1.0386227
93	0x3f886c82	1.0658114
94	0xbf4c70b0	-0.7985945
95	0xbf4a1b0a	-0.7894751

weight_ih_l1 f4 [96, 32]
0	0x3fa216ad	1.266317
1	0xbe836ab0	-0.25667334
2	0xbf44fcdb	-0.76948327
3	0xbfa42b8c	-1.282579
4	0x3f3cf249	0.738072
5	0x3f9449d1	1.1585027
6	0xbf95ae11	-1.1693746
7	0x3f561c16	0.83636606
8	0xbfac99fd	-1.3484493
9	0xbf957cb3	-1.167868
10	0x3eb06d07	0.3445818
11	0x3faf4aa8	1.3694658
12	0xbeb83271	-0.35975984
13	0x3f47e6b1	0.7808638
14	0x3f82607e	1.0185697
15	0xbe8d68bc	-0.27618968
16	0x3f872368	1.055768
17	0x3faec9c0	1.3655319
18	0xbec942f7	-0.39308903
19	0x3e0e1a8a	0.13877311
20	0x3f882c5b	1.0638536
21	0xbeb0a527	-0.34501
22	0xbfa507b8	-1.289298
23	0x3f97935c	1.1841846
24	0x3fb7411d	1.4316746
25	0xbe8fb91d	-0.28070918
26	0x3f79d510	0.9759073
27	0xbf971fb5	-1.1806551
28	0x3fa1ffb2	1.2656157
29	0xbfc93f2d	-1.5722405
30	0x3f91ece3	1.1400417
31	0xbf432121	-0.76222426
32	0xbf03367f	-0.5125503
33	0x3f2fd9cf	0.68691725
34	0x3f32af91	0.69799143
35	0x3f914f98	1.1352415
36	0x3f8539c4	1.0408254
37	0x3fb60c3f	1.4222487
38	0xbfa1fb78	-1.2654867
39	0x3fb53a88	1.4158487
40	0xbf8e1baf	-1.1102198
41	0x3fa21afb	1.2664484
42	0x3f191f2c	0.5981319
43	0xbf83d783	-1.0300144
44	0xbfb4737d	-1.4097744
45	0x3f968baa	1.1761372
46	0x3f7f7076	0.99780977
47	0xbf919380	-1.1373138
48	0xbf8e7574	-1.1129594
49	0x3f9e2b9f	1.2357062
50	0x3f61c3d8	0.8818946
51	0x3e8a702a	0.270387
52	0xbfb638be	-1.4236066
53	0x3fc91511	1.5709554
54	0x3f85e767	1.0461243
55	0x3f8fdaee	1.1238687
56	0xbf180e83	-0.59397143
57	0x3f9869ca	1.1907284
58	0x3f6f03d3	0.9336521
59	0x3f97f21b	1.187076
60	0x3f8de491	1.1085378
61	0xbf627c52	-0.8847095
62	0x3fb56887	1.4172524
63	0x3fb14e6d	1.3852059
64	0x3fd3a7e0	1.6535606
65	0x3f03631c	0.51323104
66	0xbfc56179	-1.5420371
67	0x3f8a88c5	1.0822989
68	0xbf4cae54	-0.79953504
69	0xbf867a09	-1.0505992
70	0xbf2b11a3	-0.66823786
71	0x3fcc808d	1.597673
72	0xbe852c82	-0.2601052
73	0xbfbdc84b	-1.482675
74	0xbfcad218	-1.5845366
75	0x3fa9fd71	1.3280469
76	0x3e293a5d	0.1652617
77	0xbf34964c	-0.70541835
78	0xbe8d6caa	-0.27621967
79	0xbfc0cd8b	-1.5062727
80	0x3e97eeca	0.2967437
81	0xbf84c08f	-1.0371264
82	0x3f920841	1.1408769
83	0xbfc13cfc	-1.5096736
84	0x3f66fe2c	0.90231586
85	0xbe031847	-0.1280223
86	0x3f91a89c	1.137958
87	0x3fbb555f	1.4635428
88	0x3fb78ebd	1.4340435
89	0xbf5459f8	-0.8294978
90	0xbf3c8208	-0.7363591
91	0xbf98bfb5	-1.1933504
92	0x3f0614de	0.5237559
93	0x3f5fd0e9	0.87428147
94	0x3e97b214	0.2962805
95	0x3f87ed7e	1.0619352
96	0x3fc97aa4	1.5740552
97	0x3f9e913c	1.2388072
98	0x3f4b2815	0.79358035
99	0x3f92803b	1.1445383
100	0xbf0577ca	-0.5213591
101	0xbe9764a0	-0.29568958
102	0xbf7ae6a4	-0.9800818
103	0x3f8cf66e	1.1012704
104	0x3f840fed	1.031736
105	0xbf943010	-1.1577168
106	0xbf84ddec	-1.0380225
107	0x3fa03556	1.2516277
108	0xbf8c4e77	-1.0961446
109	0xbf998794	-1.19945
110	0x3fa02826	1.2512252
111	0xbf696b78	-0.9117961
112	0xbfab3a98	-1.3377256
113	0xbf10051f	-0.56257814
114	0x3f978255	1.1836649
115	0xbfb7c681	-1.4357454
116	0xbf4c7723	-0.7986929
117	0x3fa212e4	1.2662015
118	0x3fb51402	1.4146731
119	0x3f82eeb5	1.0229098
120	0xbf375c7a	-0.71625483
121	0x3fb1a00e	1.387697
122	0x3f8f71f6	1.1206653
123	0xbf9f95c6	-1.2467582
124	0x3ef4e51a	0.4783104
125	0xbf956659	-1.1671859
126	0x3f7bf105	0.9841464
127	0x3f9023b3	1.1260895
128	0xbf61bd2c	-0.8817928
129	0xbd4542b2	-0.04815931
130	0x3f57868c	0.8418968
131	0x3f980155	1.1875407
132	0xbf867428	-1.0504198
133	0xbfa9225f	-1.3213614
134	0xbfadc06c	-1.3574347
135	0x3fa2ed7f	1.2728728
136	0x3f792a6e	0.9733037
137	0xbf941a54	-1.1570535
138	0xbfa42eea	-1.2826817
139	0xbf85a79f	-1.0441779
140	0x3f99c836	1.2014225
141	0xbf90deef	-1.1318034
142	0xbf8be40c	-1.0928969
143	0xbf875f1a	-1.0575898
144	0xbf988526	-1.1915634
145	0xbfa84b3c	-1.314796
146	0x3fa5446c	1.2911506
147	0x3f9c8f8b	1.2231306
148	0x3f9abdff	1.2089232
149	0x3fc96eed	1.5736977
150	0x3f7ca27d	0.9868544
151	0xbf93c334	-1.1543946
152	0x3f990679	1.19551
153	0xbf8a59ac	-1.0808616
154	0xbfaaba10	-1.3338032
155	0xbfae2ff0	-1.3608379
156	0xbf007256	-0.5017446
157	0x3e118e46	0.1421443
158	0xbfa3858f	-1.2775134
159	0xbf2e4962	-0.68080723
160	0x3faab728	1.3337145
161	0x3f7d783a	0.99011576
162	0x3dc7f2a8	0.0976308
163	0xbe5b7ee1	-0.21435119
164	0xbe568dc5	-0.20952518
165	0x3fa28035	1.2695376
166	0xbfd420d2	-1.6572516
167	0x3f98f6c5	1.1950308
168	0x3fb1772b	1.3864492
169	0xbfcb06c3	-1.5861439
170	0xbfbdfc44	-1.484261
171	0x3f17b666	0.5926269
172	0xbfb430dd	-1.4077412
173	0x3f9713d8	1.1802931
174	0xbe302aa0	-0.1720376
175	0xbf05f8ce	-0.5233277
176	0xbeb24948	-0.34821534
177	0x3ed72ad7	0.42024872
178	0x3fc04c8d	1.5023361
179	0xbf8d5aaa	-1.1043293
180	0xbfab9af3	-1.3406662
181	0x3f58214a	0.84425795
182	0x3f8b7ca7	1.0897416
183	0x3fc299b5	1.5203158
184	0xbf970c98	-1.1800718
185	0x3e9ab44d	0.30215684
186	0x3f8d5e7a	1.1044457
187	0x3f986078	1.190444
188	0x3dfcdd7a	0.12346931
189	0xbf8c19e2	-1.0945399
190	0x3f97e275	1.1865984
191	0x3f35313f	0.7077827
192	0xbf753bec	-0.9579456
193	0x3f185374	0.5950234
194	0x3fba5c10	1.4559345
195	0x3faefc3c	1.3670726
196	0xbfaf87c2	-1.3713305
197	0x3f8afcff	1.0858458
198	0xbf8c02dd	-1.0938374
199	0x3f3bee60	0.73410606
200	0xbf516e1e	-0.8180865
201	0x3f6096a2	0.8772985
202	0xbf0bfd75	-0.5468362
203	0xbfa70af5	-1.3050219
204	0xbe8d662e	-0.2761702
205	0x3f9bea63	1.2180904
206	0xbf4ded53	-0.80440253
207	0xbfbaf552	-1.4606116
208	0xbf92f7eb	-1.1481909
209	0xbf667c93	-0.90033835
210	0xbfb91414	-1.4459252
211	0x3f923f8b	1.1425642
212	0xbfa5bb4d	-1.2947785
213	0xbf9933c5	-1.1968924
214	0x3f9b5870	1.2136364
215	0xbf71334d	-0.94218904
216	0xbf30d7da	-0.69079363
217	0x3f920f85	1.1410986
218	0x3eb0d0da	0.3453434
219	0x3f9d7513	1.2301353
220	0xbce3235b	-0.02772682
221	0x3f95ce5a	1.1703598
222	0x3fb28afe	1.3948667
223	0x3fae676c	1.3625312
224	0x3fa9868f	1.3244189
225	0xbf6b1608	-0.9183049
226	0x3f6ae022	0.9174825
227	0x3f8f4a8a	1.1194623
228	0xbfa49b62	-1.2859919
229	0x3f93b333	1.1539062
230	0xbfa6c031	-1.3027402
231	0x3f7c0681	0.98447424
232	0xbf8f889c	-1.1213565
233	0x3fc391c1	1.5278856
234	0x3f97052e	1.1798456
235	0xbfb1a779	-1.3879234
236	0xbfbe66e6	-1.4875152
237	0x3fc4303e	1.5327222
238	0xbf9435b1	-1.1578885
239	0xbf5cbd48	-0.8622632
240	0x3fc9de65	1.5770994
241	0x3f85d646	1.0456016
242	0xbf8eae2a	-1.1146901
243	0x3f821aa4	1.016438
244	0xbfc39964	-1.5281186
245	0xbfafc144	-1.3730855
246	0x3f9edefc	1.24118
247	0x3fa07f9f	1.2538947
248	0xbf1a2f14	-0.60228086
249	0x3fa58f60	1.293438
250	0x3f7e0d05	0.99238616
251	0x3fd4a2dc	1.6612201
252	0x3f0f9148	0.56081057
253	0xbf09479d	-0.536249
254	0x3ed41238	0.4142015
255	0x3f994db2	1.1976836

weight_hh_l1 f4 [96, 32]
0	0xbf74cecc	-0.95628047
1	0xbd40c08a	-0.04705862
2	0xbfbc60da	-1.4717057
3	0x3fb5f144	1.4214253
4	0xbf461a96	-0.77384317
5	0x3f9972b2	1.1988127
6	0xbfc2b13d	-1.5210339
7	0xbf7f27a5	-0.9966987
8	0xbfbb9c68	-1.4657106
9	0x3d847623	0.06467845
10	0x3f3a5e23	0.7279989
11	0x3fae188d	1.3601242
12	0xbface696	-1.3507869
13	0x3f970eb3	1.1801361
14	0x3fa292ac	1.2701011
15	0x3f3ca84d	0.73694307
16	0xbf65e74f	-0.89806074
17	0x3f6703a8	0.90239954
18	0x3f8fc3d0	1.1231632
19	0x3f866e2b	1.050237
20	0x3eddd484	0.433262
21	0x3fb9b0c1	1.4507066
22	0xbfbbf847	-1.4685143
23	0x3fab81d6	1.3398998
24	0xbfbf6b58	-1.4954634
25	0x3f6df581	0.92952734
26	0xbfc65e52	-1.5497534
27	0xbfa3605c	-1.2763782
28	0x3f78e8bc	0.97230124
29	0xbfb59131	-1.4184934
30	0x3f9c4ce4	1.2210965
31	0x3fadbda4	1.3573499
32	0x3f9a5ef9	1.2060233
33	0xbf7c2175	-0.9848855
34	0xbf69e35d	-0.91362554
35	0x3f8de9d9	1.108699
36	0xbfc46c76	-1.53456
37	0x3fb5e3ff	1.4210204
38	0xbfc51202	-1.539612
39	0x3f36fc13	0.71478385
40	0x3f8bac35	1.0911928
41	0xbfb8d0b2	-1.4438689
42	0x3f9862e4	1.1905179
43	0xbf8b8eaa	-1.0902913
44	0xbf8bd1fc	-1.0923457
45	0x3fb3d601	1.4049684
46	0xbfa39f57	-1.2783002
47	0xbf91c32f	-1.138769
48	0x3f7af896	0.9803556
49	0xbf6c3deb	-0.9228198
50	0xbecf0225	-0.40431324
51	0xbfa49c26	-1.2860153
52	0x3f198df5	0.59982234
53	0xbf1849ab	-0.5948741
54	0x3f9cf8a1	1.2263376
55	0x3f35077e	0.7071456
56	0x3f172a8a	0.59049284
57	0xbfa4e5c7	-1.2882622
58	0xbf796371	-0.9741736
59	0x3ee20001	0.44140628
60	0x3fa3e7b3	1.2805084
61	0x3f722987	0.94594616
62	0xbf311d17	-0.6918501
63	0xbf312a77	-0.6920542
64	0x3f93c668	1.1544924
65	0xbf9b28d6	-1.2121837
66	0xbf5e76e0	-0.8690014
67	0x3f9d3037	1.2280339
68	0xbfb22af3	-1.3919357
69	0xbf09e5e6	-0.5386642
70	0xbfa38d7b	-1.2777551
71	0x3e759dbf	0.23985957
72	0xbea5311d	-0.32264033
73	0x3f4e07b4	0.80480504
74	0x3fc91f3d	1.5712658
75	0xbfb7fc57	-1.4373883
76	0xbe93d871	-0.2887607
77	0x3fa57ff6	1.2929676
78	0xbf945dd6	-1.1591136
79	0xbf029ce5	-0.5102065
80	0x3fbb2f7e	1.4623868
81	0xbfc3c87d	-1.5295559
82	0xbfa78f59	-1.3090621
83	0xbfa3ced7	-1.2797498
84	0xbddb53c1	-0.10709334
85	0x3f854804	1.0412602
86	0x3f98f56a	1.1949894
87	0xbf079e21	-0.5297566
88	0xbec70223	-0.38868818
89	0xbf9cc23f	-1.2246779
90	0xbf88c204	-1.0684209
91	0x3fb3fc6d	1.4061409
92	0x3fb87ec3	1.4413685
93	0x3f9e14b5	1.2350069
94	0xbf9af238	-1.2105169
95	0xbfac0707	-1.3439645
96	0x3ecb6c7a	0.397312
97	0xbfa729ed	-1.305967
98	0xbee40a08	-0.44538903
99	0x3fb58ac0	1.4182968
100	0xbf952427	-1.1651658
101	0x3fab8cd2	1.340235
102	0xbe83ad78	-0.25718284
103	0x3f9f197c	1.2429652
104	0x3f9e2cbe	1.2357404
105	0xbe525b44	-0.20542628
106	0x3fab859f	1.3400153
107	0xbfbf7899	-1.4958678
108	0x3df3be44	0.11901525
109	0x3f9645db	1.1740068
110	0xbfbe8b2d	-1.4886223
111	0xbf8d8a9f	-1.1057929
112	0x3fab447e	1.3380277
113	0xbfa1fa48	-1.2654505
114	0xbf732a09	-0.94986016
115	0xbfaaf486	-1.3355873
116	0xbe99fbf9	-0.30075052
117	0xbf5b7002	-0.85717785
118	0x3f9ca4ca	1.223779
119	0xbf879571	-1.0592481
120	0x3e1b3867	0.15158235
121	0xbfabb34f	-1.3414096
122	0x3fa1f90e	1.265413
123	0x3f9c0bc0	1.2191086
124	0x3f9d9256	1.2310283
125	0x3f8569d5	1.0422922
126	0xbfa8c737	-1.3185796
127	0xbf84c676	-1.0373065
128	0xbfc8705e	-1.5659292
129	0xbf6dbf07	-0.9286961
130	0x3f8f3bd9	1.1190139
131	0xbf3241a8	-0.69631433
132	0xbf89327b	-1.071853
133	0xbf82c9a6	-1.0217788
134	0x3e85310c	0.26013982
135	0x3f62faac	0.88663745
136	0x3f9a121e	1.2036779
137	0xbf7e1432	-0.99249566
138	0x3fad4c32	1.3538878
139	0xbf9c2abd	-1.2200543
140	0x3f8a43c1	1.0801927
141	0x3f890436	1.070441
142	0xbf8a5400	-1.0806885
143	0xbfaed6ff	-1.3659362
144	0x3fc4f985	1.5388647
145	0xbfbd3d86	-1.47844
146	0xbf81e96e	-1.0149362
147	0xbfb44e12	-1.4086325
148	0xbf549c3e	-0.83050907
149	0xbf93f873	-1.1560196
150	0x3f91431d	1.1348606
151	0xbfa5f1ec	-1.2964454
152	0x3f8766b2	1.0578215
153	0xbf971da6	-1.1805923
154	0x3f9a563c	1.2057567
155	0x3fb0d2db	1.3814348
156	0x3f9c4253	1.220774
157	0x3f95f4f9	1.1715385
158	0xbf8c01bc	-1.0938029
159	0xbf9d8848	-1.2307215
160	0x3f99feb0	1.203085
161	0xbf8b6b14	-1.0892053
162	0xbf879d0b	-1.0594801
163	0x3face97e	1.3508756
164	0xbfa86251	-1.3155004
165	0x3fb8220f	1.4385394
166	0xbfaabde9	-1.3339206
167	0x3f8724df	1.0558127
168	0x3f8b841b	1.089969
169	0xbfb3af19	-1.403781
170	0x3f97f84d	1.187265
171	0xbf92df09	-1.1474315
172	0x3ed6390f	0.41840407
173	0x3faee049	1.3662196
174	0xbf9ab4a0	-1.2086372
175	0xbf570d9a	-0.8400513
176	0x3f9f1bde	1.2430379
177	0xbea11577	-0.3146169
178	0xbf771349	-0.965138
179	0xbfa5bddf	-1.2948569
180	0xbf8e7bc7	-1.1131524
181	0xbf79601b	-0.9741227
182	0x3f9deb01	1.2337343
183	0xbf4934a7	-0.78595966
184	0x3f9cb744	1.2243428
185	0xbf9eb249	-1.2398158
186	0xbea3d8e9	-0.32001427
187	0x3f9379fa	1.1521599
188	0x3f66f26e	0.9021367
189	0x3fa5291e	1.2903173
190	0xbf98e04d	-1.1943451
191	0xbfa8d95b	-1.3191332
192	0xbf05b8dd	-0.52235204
193	0x3f57bf0b	0.84275883
194	0xbd62d008	-0.055374175
195	0x3ee2be23	0.44285688
196	0xbfb21b1b	-1.3914522
197	0xbf6c0fcb	-0.922116
198	0xbddd67c5	-0.10810808
199	0xbfac1416	-1.344363
200	0x3f9d7882	1.2302401
201	0xbf989924	-1.1921735
202	0x3f96da38	1.1785345
203	0xbfc37484	-1.5269933
204	0x3f8a9a5d	1.0828358
205	0x3fc1e8c5	1.5149161
206	0xbfb674c5	-1.4254385
207	0x3f5f6e3b	0.87277573
208	0x3fa9cf14	1.326632
209	0xbf634a3c	-0.8878515
210	0xbfab3101	-1.337433
211	0xbf96de8e	-1.1786668
212	0xbed14f19	-0.4088066
213	0xbfa56da7	-1.2924088
214	0x3f979c9c	1.1844668
215	0xbfaeac6e	-1.3646371
216	0x3f8a7c2b	1.0819143
217	0xbfa5ad0d	-1.2943436
218	0x3f8a11d7	1.0786694
219	0x3f997e1d	1.1991612
220	0x3fa81bd8	1.3133497
221	0x3eb6763a	0.35637075
222	0xbf2951f8	-0.661407
223	0xbfc5fb6a	-1.546735
224	0x3f4526a1	0.7701207
225	0x3f0a2325	0.53959876
226	0xbf9df096	-1.2339046
227	0xbee75437	-0.45181438
228	0xbfaa10e1	-1.3286401
229	0xbe5f599a	-0.21811524
230	0xbf44ded6	-0.7690252
231	0xbec93d25	-0.39304462
232	0x3f6dfbef	0.92962545
233	0xbf87d2d0	-1.061121
234	0x3f969c44	1.1766438
235	0xbf4b79a4	-0.79482484
236	0x3f66d562	0.90169346
237	0x3f96fc23	1.1795696
238	0xbf8cbee8	-1.099576
239	0x3f9cd701	1.2253114
240	0x3f1be649	0.6089826
241	0x3f07aa8c	0.5299461
242	0xbf56f5e0	-0.83968925
243	0x3f913402	1.1343997
244	0x3f6adef8	0.91746473
245	0xbfa02493	-1.2511162
246	0x3f9dd959	1.2331954
247	0xbfa42369	-1.2823306
248	0x3fb04e00	1.3773804
249	0xbfa5edfe	-1.2963254
250	0x3f81dc93	1.0145439
251	0x3ebacef0	0.36486006
252	0x3f8957d3	1.0729927
253	0x3f61a033	0.8813507
254	0xbf331b30	-0.6996336
255	0xbeb3a32f	-0.35085437

bias_ih_l1 f4 [96]
0	0x3f96dc1e	1.1785924
1	0xbfa89b1f	-1.3172339
2	0xbfab29c7	-1.3372124
3	0xbf948157	-1.1601971
4	0xbf844a65	-1.0335203
5	0xbfad4bfb	-1.3538812
6	0xbf95b623	-1.1696209
7	0xbf870b28	-1.055028
8	0xbfae36d9	-1.3610488
9	0xbed54ea5	-0.41661564
10	0xbf5a9867	-0.853888
11	0xbf80211c	-1.0010104
12	0xbfaf50cc	-1.3696532
13	0xbf62964b	-0.8851058
14	0xbf04c63b	-0.51864976
15	0xbf72081a	-0.9454361
16	0xbfbf96a5	-1.4967848
17	0xbf967056	-1.1753032
18	0xbf81a62e	-1.0128839
19	0xbee3fea8	-0.44530225
20	0xbfb19458	-1.3873396
21	0xbfa9aa24	-1.3255048
22	0xbf95993b	-1.1687387
23	0xbf9fa9b7	-1.2473668
24	0xbfa26baf	-1.2689112
25	0xbf36296f	-0.7115697
26	0xbfb0652c	-1.3780875
27	0xbf99a02c	-1.2002006
28	0xbf98babc	-1.1931987
29	0xbf936b01	-1.151703
30	0xbf88d8f0	-1.0691204
31	0xbf8b8eaa	-1.0902913
32	0xbf9c493d	-1.220985
33	0xbfb11a1f	-1.3836097
34	0xbfb57a7a	-1.4178002
35	0xbfc60d3c	-1.5472789
36	0xbfa740b9	-1.3066627
37	0xbf9ec50a	-1.2403882
38	0xbfaf7ec0	-1.3710556
39	0xbfb7ab44	-1.4349141
40	0xbfa02cc5	-1.2513663
41	0xbfb522dc	-1.4151263
42	0xbfa6951a	-1.3014252
43	0xbfb58af5	-1.4183031
44	0xbfc07f06	-1.5038764
45	0xbfabd812	-1.3425314
46	0xbfabfa28	-1.3435717
47	0xbfbab772	-1.4587233
48	0xbfb443ec	-1.4083228
49	0xbfb2b51b	-1.3961519
50	0xbf9583f4	-1.1680894
51	0xbfbce18c	-1.4756331
52	0xbfabef0f	-1.343233
53	0xbfaf5aba	-1.3699563
54	0xbfadd1d6	-1.3579662
55	0xbfb27b0d	-1.3943802
56	0xbf94c020	-1.1621132
57	0xbfa80664	-1.312695
58	0xbfbcc774	-1.4748368
59	0xbf9896f3	-1.1921066
60	0xbfc6d33f	-1.5533217
61	0xbfc0a506	-1.5050361
62	0xbf9e045d	-1.2345082
63	0xbfbef429	-1.4918262
64	0x3f3c0939	0.7345157
65	0x3f91b477	1.1383198
66	0x3f886e57	1.0658673
67	0x3e63b684	0.22237593
68	0x3fa178d9	1.2615005
69	0xbfad1c96	-1.3524349
70	0x3faa79b0	1.3318386
71	0xbf6b84de	-0.91999614
72	0xbf9a6e4c	-1.206491
73	0x3f92c4dd	1.1466328
74	0xbf8955c7	-1.0729302
75	0x3faba566	1.3409851
76	0x3f8ee96d	1.1164986
77	0xbf920990	-1.1409168
78	0x3fa86ab9	1.3157569
79	0x3fa45659	1.2838851
80	0x3ea15fe9	0.31518486
81	0x3fa3201f	1.2744178
82	0x3f5e48bc	0.86829734
83	0x3f7784a6	0.9668678
84	0xbdd3cfa5	-0.103423394
85	0x3f9ed874	1.2409806
86	0xbf9aa7e5	-1.2082487
87	0x3ebbb631	0.3666244
88	0xbf97bb12	-1.1853964
89	0x3fa61d04	1.2977605
90	0xbef6f099	-0.48230436
91	0x3edf6593	0.43632182
92	0xbf8bcc41	-1.0921708
93	0xbcc58d0e	-0.024115112
94	0x3f917f3c	1.1366954
95	0x3fa4f9d7	1.2888745

bias_hh_l1 f4 [96]
0	0x3f735c26	0.9506248
1	0xbfa38898	-1.277606
2	0xbfbefedd	-1.4921528
3	0xbfb176ca	-1.3864377
4	0xbf876ab8	-1.0579443
5	0xbfb65e11	-1.4247457
6	0xbf903b49	-1.1268092
7	0xbfa92c68	-1.3216677
8	0xbfab679d	-1.3390995
9	0xbf0f2682	-0.55918133
10	0xbf7505a1	-0.95711714
11	0xbf9857a9	-1.1901752
12	0xbf8a7ca4	-1.0819287
13	0xbf920c9c	-1.1410098
14	0xbe9c65fc	-0.30546558
15	0xbf50f203	-0.8161928
16	0xbfd124e8	-1.6339388
17	0xbfa2c3dc	-1.2716022
18	0xbf8294f0	-1.0201702
19	0xbf13d487	-0.57746166
20	0xbfb50932	-1.4143431
21	0xbf861fe4	-1.0478482
22	0xbf9f3ccc	-1.2440429
23	0xbf8ffa12	-1.124819
24	0xbf9a1a72	-1.203932
25	0xbf03d1a1	-0.51491743
26	0xbfa40f28	-1.2817125
27	0xbfb293fc	-1.3951411
28	0xbf95e9fe	-1.1712034
29	0xbfadb888	-1.357194
30	0xbf94f909	-1.16385
31	0xbf8a6fd5	-1.0815378
32	0xbfa476e2	-1.284878
33	0xbfaf3ca1	-1.3690377
34	0xbfaf9ff7	-1.3720692
35	0xbfa041b0	-1.2520046
36	0xbfb1255b	-1.3839525
37	0xbfb6a59b	-1.4269289
38	0xbf9a212c	-1.2041373
39	0xbfb21c7f	-1.3914946
40	0xbfac3e84	-1.3456578
41	0xbfa5cd22	-1.2953227
42	0xbf9ec106	-1.2402656
43	0xbf9f790c	-1.2458816
44	0xbfbd2ac4	-1.4778676
45	0xbfadec59	-1.3587753
46	0xbfb82cce	-1.4388673
47	0xbfc29185	-1.5200659
48	0xbfb0465b	-1.3771471
49	0xbfb4f4bb	-1.4137186
50	0xbfa2e4e2	-1.27261
51	0xbf9c44aa	-1.2208455
52	0xbfb9037c	-1.4454188
53	0xbf9dbc05	-1.2323004
54	0xbfc1c817	-1.5139188
55	0xbfa5cc04	-1.2952886
56	0xbf99fa86	-1.2029579
57	0xbf98874f	-1.1916293
58	0xbfaeab96	-1.3646114
59	0xbfa0d0c1	-1.2563707
60	0xbfa4edfd	-1.2885128
61	0xbfc3458c	-1.5255599
62	0xbfa2fdd2	-1.273371
63	0xbfb82c6f	-1.438856
64	0x3f07b594	0.5301144
65	0x3f8f1b4c	1.1180205
66	0x3f6e3d7c	0.9306257
67	0xbf9744a7	-1.1817826
68	0x3f852bfa	1.0404046
69	0xbf755638	-0.95834684
70	0x3f9c4ecb	1.2211546
71	0x3f03d630	0.514987
72	0xbf8a1143	-1.0786518
73	0x3f9f1e05	1.2431036
74	0xbfa48870	-1.2854137
75	0x3fa2fe96	1.2733943
76	0x3f765471	0.962226
77	0xbf873945	-1.0564352
78	0x3f9b3aab	1.2127279
79	0x3fa562a4	1.2920728
80	0xbf5ba6a6	-0.8580116
81	0xbeb90b31	-0.3614135
82	0x3f90a5da	1.1300614
83	0x3f996acb	1.1985716
84	0xbf9576c8	-1.1676874
85	0x3f7ff3f2	0.99981606
86	0xbf94ddf9	-1.1630241
87	0xbdc45563	-0.09586599
88	0xbf9e6424	-1.237431
89	0x3f8fc2d6	1.1231334
90	0xbf526064	-0.8217833
91	0xbf97769f	-1.1833075
92	0xbf8e4167	-1.1113709
93	0xbf93532d	-1.1509758
94	0x3f44a612	0.76815903
95	0x3fa860a4	1.3154492

weight f4 [63, 32]
0	0x3fbba9fe	1.4661252
1	0xbfabcbb2	-1.3421538
2	0x3fa8725e	1.3159902
3	0xbe87b6db	-0.26506695
4	0xbf6de20b	-0.9292304
5	0x3f8be8f7	1.093047
6	0xbf696c7a	-0.9118115
7	0x3fabac73	1.3412002
8	0xbf3a56b8	-0.7278857
9	0xbe858bd7	-0.26083252
10	0x3fb4db7e	1.4129484
11	0x3c93742e	0.017999735
12	0xbfa8f6e2	-1.3200343
13	0x3fc90a0d	1.5706192
14	0xbfa854fc	-1.3150935
15	0xbfbf2fd7	-1.4936475
16	0x3e09186e	0.13388225
17	0xbeae5155	-0.34046426
18	0xbf4adf8d	-0.7924736
19	0xbf9b3915	-1.2126795
20	0x3fb9486f	1.447523
21	0xbf9223cd	-1.1417176
22	0x3fc77041	1.5581132
23	0x3f3e51e5	0.7434371
24	0x3fa2833e	1.2696302
25	0xbf98e96f	-1.1946238
26	0xbf603c7a	-0.8759228
27	0x3fa48738	1.2853765
28	0x3f26f016	0.6521009
29	0x3c105e9a	0.008811617
30	0xbfacb609	-1.3493053
31	0xbda9b5c0	-0.08286619
32	0xbfbaad7e	-1.4584196
33	0x3f9466b2	1.159384
34	0xbf834b32	-1.0257323
35	0x3f35b3d0	0.709775
36	0x3faf4a75	1.3694597
37	0x3f977867	1.1833619
38	0x3f873dc0	1.056572
39	0xbfb9e967	-1.4524354
40	0xbf8d4c9c	-1.1039004
41	0x3fa3ad08	1.278718
42	0x3ee4842a	0.44632083
43	0x3f9572f6	1.1675708
44	0xbf8b9b87	-1.0906838
45	0xbeedd02f	-0.46447894
46	0x3fac9035	1.3481508
47	0x3f9ffae6	1.2498443
48	0xbf94d4de	-1.1627462
49	0xbef2f18f	-0.4744992
50	0x3f991a3c	1.1961131
51	0x3f9053c7	1.1275567
52	0x3e489a9d	0.1959023
53	0x3fb2ff66	1.3984191
54	0xbf95ce5e	-1.1703603
55	0x3f99a674	1.2003922
56	0xbf8d739f	-1.105091
57	0x3f937882	1.1521151
58	0xbf6b3e68	-0.918921
59	0xbf91d9e0	-1.1394615
60	0x3cdf54dc	0.027262144
61	0xbfad5f2b	-1.3544668
62	0x3faaa830	1.3332577
63	0x3f9a90f3	1.2075485
64	0xbfa74b3f	-1.3069838
65	0xbfb7ec3d	-1.4368969
66	0x3fa4d880	1.287857
67	0xbf8c89f6	-1.0979602
68	0xbfa01a81	-1.2508088
69	0x3fbcdce9	1.4754916
70	0xbfa9e466	-1.3272827
71	0x3f9e0a60	1.2346916
72	0x3fa88522	1.3165629
73	0xbfb4003f	-1.4062575
74	0x3faa522f	1.330633
75	0xbfad8f01	-1.3559266
76	0xbf9dc6fc	-1.232635
77	0x3fae52c0	1.3619003
78	0xbfa58b0c	-1.2933059
79	0xbfbad564	-1.4596372
80	0x3fb4f713	1.4137901
81	0x3fa6ce1c	1.303165
82	0xbf956280	-1.1670685
83	0xbfa60e3b	-1.2973093
84	0x3d9ce800	0.07661438
85	0xbfb31dfe	-1.3993528
86	0x3f856578	1.0421591
87	0xbf935826	-1.1511276
88	0x3f8993fc	1.0748286
89	0xbfaf18b9	-1.367942
90	0x3fa3cd03	1.279694
91	0x3f937b4c	1.1522002
92	0x3fa0f23b	1.2573923
93	0x3f9ee6da	1.24142
94	0xbf8309a0	-1.0237312
95	0xbfa9491d	-1.3225437
96	0x3eb1a162	0.34693438
97	0xbfa5d9ee	-1.2957132
98	0xbf5b2f68	-0.8561921
99	0xbfc0e5ac	-1.507009
100	0xbfa008d7	-1.2502698
101	0xbf61862c	-0.88095355
102	0xbfb09bfb	-1.3797601
103	0x3f4a3cf2	0.78999245
104	0xbf895860	-1.0730095
105	0xbf0beb40	-0.5465584
106	0x3f0a566e	0.5403813
107	0xbf364e07	-0.7121281
108	0xbfabf6a2	-1.3434641
109	0xbfb01e06	-1.3759162
110	0x3f51b445	0.81915694
111	0xbf3d0b0d	-0.7384499
112	0xbeef0468	-0.4668305
113	0x3f7e4835	0.9932893
114	0xbf8970de	-1.0737569
115	0x3f0dc8e1	0.5538464
116	0x3fa1c897	1.263934
117	0x3f41e103	0.75733966
118	0x3f855c22	1.0418742
119	0xbe5d6038	-0.21618736
120	0x3f8b10f3	1.0864547
121	0xbf55ed0a	-0.8356482
122	0xbf172f4f	-0.5905656
123	0xbe8d3379	-0.27578333
124	0x3fb2505f	1.3930777
125	0xbf2efc4f	-0.6835374
126	0x3f659dbd	0.89693815
127	0xbf26fd2e	-0.6523007
128	0xbf36c9de	-0.71401775
129	0xbfb41a5d	-1.4070545
130	0x3f7bbfdf	0.9833965
131	0xbfb0f424	-1.3824506
132	0x3f2e93b9	0.68194157
133	0xbf4c1c5e	-0.79730785
134	0x3f8f99ba	1.1218789
135	0x3fa609be	1.2971723
136	0x3f344a5d	0.7042597
137	0xbf2fa85c	-0.6861627
138	0x3ea42b78	0.32064414
139	0xbf957587	-1.1676491
140	0xbf4f590a	-0.8099524
141	0x3fac1483	1.344376
142	0xbfb7c8de	-1.4358175
143	0xbfbd034b	-1.476663
144	0x3d0c6cc0	0.0342834
145	0x3f36759d	0.71273214
146	0xbf1b9dd0	-0.6078768
147	0xbfa408d1	-1.281519
148	0xbfb33fe0	-1.4003868
149	0xbf98c3f8	-1.1934805
150	0x3f8f454e	1.1193025
151	0x3efddc50	0.49582148
152	0x3e0db5bc	0.13838857
153	0xbfaea221	-1.3643228
154	0x3f9c5069	1.2212039
155	0x3f3fbc9b	0.74897164
156	0x3f82ced3	1.0219368
157	0xbf17f7a8	-0.5936227
158	0xbfce87c4	-1.6135182
159	0xbf78e90e	-0.97230613
160	0xbfb2e990	-1.3977528
161	0xbfa639c1	-1.2986375
162	0x3fa113dc	1.2584186
163	0xbfc58fcd	-1.543451
164	0xbfa912a9	-1.320882
165	0xbeabf7c6	-0.33587474
166	0xbf4e70f1	-0.80641085
167	0x3fb9ea23	1.4524578
168	0x3fb67260	1.4253654
169	0xbfc596b2	-1.5436614
170	0x3fa44f31	1.2836667
171	0xbf43ab14	-0.7643292
172	0x3f808199	1.003955
173	0x3fc92ee2	1.5717432
174	0xbf3ae7c0	-0.7300987
175	0xbfb1b845	-1.388436
176	0x3faea1fd	1.3643185
177	0x3fac7e12	1.3475974
178	0xbfc02578	-1.5011435
179	0xbf4794de	-0.7796153
180	0xbf5cc80a	-0.86242735
181	0xbfab2ab8	-1.3372412
182	0x3faea467	1.3643922
183	0xbfba78b1	-1.4568082
184	0x3fbe719e	1.4878423
185	0xbfb6a0da	-1.4267838
186	0x3fbda3c6	1.4815605
187	0x3f630d32	0.8869201
188	0x3f97112f	1.1802119
189	0x3f8198d0	1.012476
190	0xbf70d2fd	-0.9407194
191	0xbfafdb73	-1.3738846
192	0x3f9670d5	1.1753184
193	0x3f90cfb3	1.1313385
194	0x3f6f7851	0.93542963
195	0xbe607f5b	-0.21923582
196	0x3f02ce15	0.51095706
197	0x3f0f5ac6	0.55997884
198	0x3f21b74d	0.6317032
199	0xbf729fbe	-0.94775
200	0xbf9c0a06	-1.2190559
201	0xbe70bb22	-0.23508886
202	0xbf2f5fdd	-0.6850565
203	0x3f1d54e2	0.61457646
204	0xbf81c493	-1.0138115
205	0xbf76a67c	-0.96347785
206	0x3f82476f	1.017805
207	0xbf62612d	-0.8842953
208	0x3f6c0840	0.9220009
209	0xbf4651ca	-0.7746855
210	0x3ed9a4fd	0.4250869
211	0xbf9b6c1b	-1.2142366
212	0x3ccec973	0.025242543
213	0xbf65cc79	-0.89765126
214	0xbfa0a6e0	-1.2550926
215	0x3f05c5f8	0.522552
216	0xbf99bdc6	-1.2011039
217	0x3f954140	1.1660538
218	0x3f719eef	0.9438314
219	0xbfa377a4	-1.2770886
220	0xbf9e53d8	-1.2369337
221	0xbfb049a8	-1.3772478
222	0x3fa4b42e	1.2867486
223	0x3e3b6610	0.18300653
224	0x3fae1ef8	1.3603201
225	0xbfbbaf6c	-1.466291
226	0xbf9021a4	-1.1260266
227	0xbfa3da1d	-1.2800938
228	0xbfba678f	-1.4562854
229	0x3fb8ae20	1.4428139
230	0xbfc686c6	-1.550988
231	0x3f93cfde	1.1547811
232	0x3f39d6b4	0.72593236
233	0x3f6d0f9f	0.9260196
234	0x3f88106f	1.0630015
235	0xbf98fc48	-1.195199
236	0xbfb4a285	-1.4112097
237	0x3fc31151	1.523966
238	0xbdb4f4bc	-0.08835742
239	0xbfb14a2c	-1.385076
240	0xbeadd91c	-0.33954704
241	0x3f7567d0	0.9586153
242	0xbf100494	-0.56256986
243	0x3e57f037	0.21087728
244	0xbec3e47c	-0.38260257
245	0x3f2aa9fe	0.6666564
246	0x3fa43ecf	1.2831668
247	0x3fa1819c	1.2617679
248	0xbf15bc99	-0.584909
249	0xbf50a4d0	-0.81501484
250	0xbf78dc7f	-0.9721145
251	0xbf0ad954	-0.54237866
252	0xbf0e643a	-0.55621684
253	0x3fd8d284	1.6939244
254	0xbfc83944	-1.5642476
255	0xbe970a16	-0.29499882

bias f4 [63]
0	0xbfaaf455	-1.3355814
1	0x3f914373	1.1348709
2	0xbf91506d	-1.1352669
3	0xbfa9f052	-1.3276465
4	0xbf8e2dac	-1.1107688
5	0xbfae1c66	-1.3602417
6	0x3f89e415	1.077273
7	0xbf91e061	-1.13966
8	0xbf6521f2	-0.8950492
9	0xbf901367	-1.1255921
10	0xbf8aac81	-1.0833894
11	0x3f8e572f	1.1120356
12	0xbf9ba834	-1.2160707
13	0xbf891db2	-1.0712187
14	0xbf836182	-1.0264132
15	0xbfa1a4cc	-1.2628417
16	0xbea64fca	-0.3248275
17	0x3f94ca11	1.1624166
18	0xbf5621ca	-0.8364531
19	0xbfaf87a1	-1.3713266
20	0xbf81edc1	-1.0150682
21	0xbf9f3a3c	-1.2439647
22	0xbfa7b274	-1.3101335
23	0x3fa0602c	1.2529349
24	0xbf86533f	-1.0494155
25	0x3f505d31	0.813922
26	0xbfa36f96	-1.2768428
27	0xbf98f394	-1.1949334
28	0xbf9b8ad1	-1.2151738
29	0x3fa13659	1.259471
30	0x3f9a539e	1.2056768
31	0xbf895163	-1.0727962
32	0x3f82ee89	1.0229045
33	0xbfa364c8	-1.2765131
34	0xbf8be0d6	-1.092799
35	0xbfa71dd7	-1.3055981
36	0xbfa0feae	-1.2577722
37	0xbf966a30	-1.1751156
38	0xbf105c85	-0.56391174
39	0xbf935579	-1.1510459
40	0xbf8f689b	-1.1203798
41	0xbfa454cc	-1.2838378
42	0xbf8d6ff9	-1.1049796
43	0xbf34c01e	-0.7060565
44	0xbf61bd97	-0.88179916
45	0xbf55ed18	-0.835649
46	0xbfa202a7	-1.265706
47	0xbfb31b26	-1.399266
48	0xbf96c669	-1.17793
49	0xbfb99403	-1.4498295
50	0x3f766213	0.962434
51	0xbf8c56d9	-1.0964004
52	0x3fa12d10	1.2591877
53	0xbf7ee82a	-0.99573004
54	0xbc18a1cf	-0.009315922
55	0xbfae0426	-1.3595016
56	0xbf97eb2b	-1.1868643
57	0x3f2e2442	0.68024075
58	0xbfa0a4bb	-1.2550272
59	0xbf9c363f	-1.2204055
60	0xbfacd058	-1.3501081
61	0x3fbfa014	1.4970727
62	0xbf9fcd3d	-1.2484509
